assignment6/data/traced_resnet18.pt (torch, 29347 bytes, 8 tensors)

weight f4 [64, 4]
000000 38 54 8c 3e 00 33 a2 3d 5e ca 81 3e e0 f9 a3 3c
       0.27408004 0.07919884 0.25349706 0.02001661
000010 24 c0 ee be 40 56 e8 3e 1e 1c 95 3e d6 e3 a2 3e
       -0.46630967 0.45378304 0.29123014 0.3181445
000020 28 83 e8 3d 1e 79 b1 3e b0 36 56 bd c0 76 5b bc
       0.11353141 0.34662718 -0.052298248 -0.013395011
000030 60 df 56 be 08 4a 7f 3e ea 3a a2 be 74 bd e0 3e
       -0.20983648 0.24930584 -0.31685573 0.4389454
000040 98 1f e8 3e 74 e6 61 3e b0 d7 dd bd 78 5b 0e be
       0.45336604 0.22060567 -0.10832155 -0.1390208
000050 8e 51 af be a0 71 af bd 32 5f fb 3e 0c 34 b7 3e
       -0.3424191 -0.08566594 0.49096066 0.35781896
000060 5c 14 4f 3e e0 94 ef 3e 00 7a 64 bd ba 36 b6 be
       0.2022261 0.4679327 -0.05578041 -0.35588628
000070 c0 2b 7b be 88 5e df 3e 0c 31 2d 3e be 49 c2 be
       -0.24528408 0.4362681 0.16913241 -0.37946886
000080 cc a0 1f be 68 ac fb 3d 60 6b 38 bd 38 4e cc be
       -0.15588683 0.12288743 -0.045024276 -0.39903426
000090 00 4d ec bd 88 36 a2 3d 8c ed f5 3e 70 2f d7 3e
       -0.11538124 0.07920557 0.48032796 0.4202838
0000a0 80 3b 99 3c ec 7f 69 3e 90 de d2 3d 92 83 a5 3e
       0.01870513 0.22802705 0.10296357 0.32326943
0000b0 44 86 c3 be 6a 22 eb be 1a 56 ad be 02 cf c2 3e
       -0.38188374 -0.45924693 -0.33854753 0.3804856
0000c0 80 44 82 3e 40 69 5d bc 82 56 e6 be 60 ae 91 bd
       0.25442886 -0.013513863 -0.44987875 -0.071133375
0000d0 f8 90 1e be e0 bb e1 be d6 49 cf be 36 8c bb be
       -0.15484989 -0.4408865 -0.4048602 -0.3663041
0000e0 54 20 06 be c2 dd 84 be be 04 a9 be 60 0d f3 3e
       -0.1309827 -0.25950438 -0.3301143 0.47471142
0000f0 10 fc e3 3d 10 af fc 3e 52 94 94 be 1e b7 f7 be
       0.111320615 0.49352312 -0.2901941 -0.48381895
000100 88 14 28 be 1e af 9c 3e 80 c3 8d bc 5c 28 51 3e
       -0.16414082 0.30602354 -0.017305136 0.20425552
000110 3c 6c 29 be b6 c8 b8 3e f0 28 c4 bd e0 ed 0b 3d
       -0.16545194 0.3609063 -0.09578121 0.034162402
000120 98 36 b6 3d f0 5e 81 3d 64 bc 78 3e 50 63 b1 be
       0.08897132 0.06316936 0.24290615 -0.34646082
000130 40 00 9e 3c f8 53 e5 3e f0 b4 c2 3e b0 9a 02 3e
       0.019287229 0.44790626 0.3802867 0.12754321
000140 04 c3 09 be 40 02 df 3e 50 74 6d bd a0 e5 9b 3c
       -0.13453299 0.43556404 -0.057972252 0.019030392
000150 70 53 84 3d c0 ea 79 be 90 09 1b 3e 90 f5 e0 be
       0.06461227 -0.24405956 0.15140367 -0.4393735
000160 44 12 8b 3e 10 a6 d1 3e 00 1b d6 bd 18 1f f5 bd
       0.27162373 0.40947008 -0.104543686 -0.11968821
000170 46 84 9d be 96 cb 91 3e bc c0 68 be d0 d1 28 3e
       -0.3076498 0.28475636 -0.22729772 0.16486287
000180 14 8b 5b 3e f4 6c 73 3e fa fd ca 3e 26 81 c0 3e
       0.21439773 0.23772031 0.39646894 0.37598532
000190 64 8d 12 be 56 f5 be be e0 08 3f 3d 34 49 4e 3e
       -0.14311749 -0.3729655 0.046639323 0.20145112
0001a0 6c 6f c5 3e 6a cd d3 3e 4a 01 cf 3e 76 ad a4 be
       0.3856157 0.41367656 0.4043067 -0.3216359
0001b0 1c 7c df be 00 6f f3 bc 98 9c 89 be a8 8e b1 3d
       -0.43649375 -0.029716015 -0.26877284 0.08669788
0001c0 12 81 80 be bc f6 15 3e 44 0a 70 3e 60 25 91 3c
       -0.25098473 0.14644903 0.23441416 0.017718017
0001d0 1a 49 e4 be d0 59 40 be c4 14 1c 3e 98 8f a6 3e
       -0.44587022 -0.18784261 0.15242296 0.32531428
0001e0 20 f6 dd bc 6c 72 3d 3e 48 2e ec be 78 ec ea be
       -0.0270949 0.1850068 -0.4612906 -0.45883536
0001f0 80 7b db be 9c a7 71 3e fc 39 38 3e a2 93 a5 be
       -0.4286766 0.23599094 0.1799087 -0.32339197
000200 cc 4c df 3e 18 cd ff bd 54 05 1c 3e 64 1b 48 be
       0.4361328 -0.124902904 0.15236408 -0.19541699
000210 34 96 b8 be 98 d7 41 3e 0e 2a e8 be ee 28 d1 3e
       -0.36052096 0.18929899 -0.45344585 0.4085154
000220 de 80 de be f0 b2 d4 3e 3a fc f3 be 18 93 37 be
       -0.43457693 0.41542768 -0.4765337 -0.17927206
000230 00 c1 15 3c 40 bb 62 bd 40 0d a8 3e c4 36 89 be
       0.009140253 -0.055354357 0.3282261 -0.26799595
000240 18 33 2f 3e be 14 c9 3e 52 fe f3 3e 00 df 0c bc
       0.17109334 0.39273638 0.47654969 -0.008598089
000250 54 74 45 be a2 da ae 3e 44 1b 3d be e6 db a9 3e
       -0.19282657 0.3415118 -0.18467432 0.33175582
000260 c6 cb 85 3e 1c 5d f0 be f0 aa 04 bd 2a 16 d2 3e
       0.2613203 -0.46946037 -0.03238958 0.41032535
000270 38 16 a8 3d 56 df e0 3e f6 94 e4 3e c0 29 21 bd
       0.08207363 0.43920392 0.44644898 -0.039346457
000280 a4 01 ed 3e 28 a0 28 3e ac 74 c2 3e 2c 71 5d be
       0.46290314 0.16467345 0.3797964 -0.21625203
000290 aa b7 e1 be 82 ac e0 3e 48 ed a6 bd 40 85 a0 3c
       -0.44085437 0.43881613 -0.081507266 0.019594789
0002a0 04 26 a3 3e 9e 17 a0 be 26 d5 da be 42 96 c8 3e
       0.3186494 -0.31268018 -0.42740744 0.39177138
0002b0 cc b1 84 be 50 b5 ae be 00 33 d5 bc 80 70 06 be
       -0.25916898 -0.34122705 -0.026025295 -0.13128853
0002c0 98 47 f4 3d 46 ed 85 be 00 f4 5a bb 00 a8 f4 39
       0.11927718 -0.26157588 -0.0033409595 0.00046664476
0002d0 08 af c6 3d e6 1b d3 3e 5c fd b3 3e d8 ab 71 3e
       0.09701353 0.41232222 0.35154235 0.2360071
0002e0 54 1d ae be f0 4a c6 3e ce 12 ba 3e 14 dd 31 be
       -0.3400675 0.38729048 0.36342472 -0.17369491
0002f0 ac 1b 9c be 80 1e 2a 3e f6 51 fa be ce 81 ba 3e
       -0.30489862 0.16613197 -0.48890656 0.36427158
000300 a8 2a 8c 3e 20 d6 31 3e f0 36 f1 be 7c 71 a1 3e
       0.27376294 0.17366838 -0.47112226 0.31531894
000310 00 9e 93 be 6c 12 ea be 90 50 d4 be c6 c9 9e be
       -0.28831482 -0.4571718 -0.41467714 -0.31013316
000320 80 1a 59 3d 10 62 46 3e 00 46 71 3d 18 15 a9 be
       0.053003788 0.19373345 0.058904648 -0.33023906
000330 e0 29 f5 be 7e 82 90 3e 80 2d fd 3b 20 72 4a be
       -0.4788351 0.28224558 0.0077263713 -0.19770098
000340 98 1c cd bd 80 2d 30 be 4c 94 af be 14 9d 57 be
       -0.100152194 -0.17204857 -0.3429283 -0.21056014
000350 9a 49 bd 3e 20 b6 bc be 40 01 b9 be 5e 57 d8 3e
       0.36970216 -0.368577 -0.36133766 0.42254156
000360 a2 a4 f7 3e ae 9f 90 be 58 c1 ec 3d b8 ce df be
       0.48367792 -0.28246826 0.11560315 -0.437124
000370 04 87 33 be 28 6e a8 be c0 f3 2f be b0 9c 88 bd
       -0.17531973 -0.32896543 -0.17182827 -0.06670511
000380 08 24 b2 bd 00 c8 fc bb 2c 28 f8 be 24 c2 9b 3e
       -0.08698279 -0.0077142715 -0.4846815 0.30421555
000390 d8 ac 8a bd b4 b1 37 be c2 39 86 be dc 69 52 be
       -0.067712486 -0.17938882 -0.2621594 -0.20548195
0003a0 4c 83 86 3e 88 08 ea bd cc 30 d5 3e 48 40 49 3e
       0.26272047 -0.114274085 0.41638792 0.19653428
0003b0 80 33 c3 bd f2 c3 8d 3e c0 a1 b7 be 34 0f e4 be
       -0.09531307 0.27688557 -0.35865593 -0.4454285
0003c0 a0 6e 12 3e 06 91 91 3e 10 8e f4 3e b6 2b 95 3e
       0.14300013 0.28430957 0.47764635 0.2913491
0003d0 a0 73 3f bd 28 fb 34 3e 58 72 9b 3e b4 e3 4b be
       -0.046741128 0.17673934 0.30360675 -0.1991108
0003e0 9c 76 e2 3e b2 ef 86 be dc b2 ba 3e 70 bd 90 3e
       0.44231117 -0.26354748 0.36464584 0.2826953
0003f0 48 a1 96 3d 5c d3 78 3e e8 cb 8c bd b0 ad d7 be
       0.07354981 0.24299377 -0.068748295 -0.421247

bias f4 [64]
000000 64 64 4c be 34 9f 86 be 60 ac 0d 3e d0 b1 53 be
       -0.19960171 -0.26293337 0.13835287 -0.20673299
000010 0a 4b ed 3e a4 99 30 3e 38 a5 a4 be 7c 62 e4 be
       0.46346313 0.17246109 -0.32157302 -0.44606388
000020 c4 ac 50 be f0 a7 81 3d 20 83 e1 bd 9e c7 cb 3e
       -0.20378405 0.0633086 -0.11011338 0.39800733
000030 c8 bf 85 bd 74 09 b0 be 7e af 82 3e 6c 53 67 3e
       -0.0653072 -0.34382212 0.25524515 0.22590417
000040 06 39 af 3e 2a 8a ac be 72 44 ae be 40 e3 ed bd
       0.34223193 -0.3369916 -0.34036595 -0.1161561
000050 78 9c 68 be 20 6f 87 3c 10 d4 b9 3e f0 5f 5d be
       -0.22715938 0.01653248 0.36294603 -0.21618629
000060 84 3d 89 3e 4a ac ba be 00 a5 8a be f2 c5 b6 be
       0.26804745 -0.3645957 -0.2707901 -0.35697895
000070 f0 78 3b be 68 c0 ac bd 30 95 35 3e 08 8c c7 3d
       -0.18307853 -0.08435136 0.17732692 0.09743506
000080 62 68 b9 3e ba 76 99 3e 1c 28 5e 3e 68 20 a1 3e
       0.3621245 0.29973394 0.21694988 0.31470037
000090 70 e3 c3 bd 80 e2 a4 3d b8 77 06 be 64 25 41 be
       -0.09564865 0.08051014 -0.13131607 -0.1886192
0000a0 10 39 e4 bd ec 6d 19 3e a0 f8 f4 be 3c a9 4f 3e
       -0.11143696 0.14983338 -0.47845936 0.20279402
0000b0 50 3c c3 be 48 50 b4 3e c4 3d 9b 3e 64 77 10 3e
       -0.38131952 0.352175 0.3032056 0.14108044
0000c0 88 f4 c5 be d2 6a 81 3e e0 42 60 be 0c ed fb be
       -0.38663125 0.2527681 -0.21900511 -0.4920429
0000d0 a2 f5 f8 3e d6 8f a9 be e8 26 d7 3d 0a 6c d3 3e
       0.48624903 -0.3311755 0.10505468 0.41293365
0000e0 b0 56 bc bd 14 b9 40 be 94 4c 5b be b4 e5 82 3e
       -0.09196222 -0.18820602 -0.21415931 0.25565875
0000f0 10 cd cc 3d a0 88 da 3c 80 fd 08 be 72 f0 f8 3e
       0.1000005 0.026676476 -0.13377953 0.48620945

weight f4 [32, 64]
000000 c8 31 c5 bd 32 bb f8 3d 28 05 cb 3d 20 19 9f bc
       -0.09628636 0.1214508 0.09913093 -0.01942116
000010 46 57 f8 bd 94 1f c4 bd e8 bd 62 bd 50 30 f6 3d
       -0.12126021 -0.095763355 -0.05535689 0.12020934
000020 90 20 1e 3c ca 31 90 3d e2 4c c4 bd 94 e7 0a 3d
       0.009651318 0.070407465 -0.09584977 0.033912256
000030 40 97 38 3b c8 21 7b 3d fe 8f b7 bd 10 0f 7a bc
       0.0028166324 0.061311513 -0.08963011 -0.01526238
000040 ca 83 9e bd 28 31 e5 bc 28 32 8d 3c bc c8 38 3d
       -0.077399805 -0.027977541 0.01723583 0.04511331
000050 ba 28 d6 bd 70 d2 61 bc ca db c5 3d 34 a9 51 bd
       -0.10456987 -0.013783082 0.09661062 -0.051186755
000060 6e 1c 96 3d 30 73 35 bc 38 cb 2e 3d 48 b9 ee bd
       0.07329641 -0.011074826 0.042674273 -0.11656433
000070 02 ab f7 3d 40 27 d3 bb 54 cb e8 bd 84 8e 47 bd
       0.12093164 -0.006443888 -0.11366907 -0.048719898
000080 90 85 73 3d 08 e3 f6 bc c4 44 31 bd f0 93 a4 3d
       0.059453547 -0.030137554 -0.04327847 0.08036029
000090 64 32 55 3d 98 61 0e 3d 9c 3c 68 3d 30 0d 6e 3c
       0.05205001 0.03476104 0.056698427 0.014529511
0000a0 78 f7 0a bd 00 31 c8 ba 70 82 d5 3c ac e2 7b 3d
       -0.03392741 -0.0015273392 0.026063174 0.061495468
0000b0 04 f0 2a bd a4 ed 5f bd a0 9a e8 bd 48 cd 4e 3d
       -0.041732803 -0.05466999 -0.113576174 0.05048874
0000c0 20 db 35 bd c0 57 51 3c e0 01 9a 3c 88 1c 0c bd
       -0.044398427 0.012777269 0.018799722 -0.034206897
0000d0 e6 98 88 bd e2 d5 e6 bd 68 96 8f 3d d4 10 b8 bd
       -0.06669788 -0.11271264 0.070111096 -0.08987585
0000e0 0e 32 d5 bd b2 16 af 3d 36 53 f6 bd 00 be 0c bd
       -0.10409938 0.08549251 -0.1202759 -0.034360886
0000f0 20 c9 29 3d 4c 0b a8 bd 50 6c b7 3c 30 97 d6 3c
       0.041451573 -0.0820528 0.022390515 0.026195139
000100 f0 ad 9e bd 94 98 f1 bd 70 30 f4 3d 5c ff ae 3d
       -0.0774802 -0.1179668 0.11923301 0.085448
000110 e0 b2 40 3c 10 ac 0a bd 3a 89 f7 3d e4 d4 70 bd
       0.011761397 -0.033855498 0.12086721 -0.05879678
000120 be c7 9f bd a8 94 ee 3c 5e f6 b2 bd 18 b4 dc 3c
       -0.0780177 0.02912362 -0.08738397 0.026941344
000130 7a cd c9 3d 10 67 32 bc dc 62 4b 3d 48 0a e4 bd
       0.09853645 -0.01088883 0.049654827 -0.111347735
000140 fa cf b7 3d f8 f1 fb 3d 74 ab 10 bd f4 e1 df 3d
       0.08975215 0.12302011 -0.03531976 0.10931769
000150 28 e2 81 3d 80 c2 f5 bd b8 37 53 bd 78 85 41 3d
       0.06341964 -0.119999886 -0.05156681 0.047246426
000160 00 70 48 bc bc 54 5c bd 5c 58 57 3d da 1a f0 bd
       -0.012233734 -0.053791746 0.0525745 -0.117238715
000170 f8 99 c8 3c f4 69 c3 bd 64 69 f7 3d c8 1e 52 bd
       0.02448748 -0.09541693 0.120806485 -0.051298887
000180 fa 30 97 3d da 45 c2 bd 20 50 85 3b 8c cf a5 3d
       0.073823884 -0.094859794 0.0040683895 0.08096227
000190 1a e5 84 3d 74 3a 32 3d 5c 78 41 bd 46 cd 8f 3d
       0.0648901 0.043512776 -0.047233924 0.07021575
0001a0 18 86 2e bd 10 30 1d 3d ae 6a aa 3d 3c 3d 62 bd
       -0.04260835 0.038375914 0.08321129 -0.05523418
0001b0 40 ba e3 bd 58 02 1a bd 2e f4 c5 3d 5c 49 3a 3d
       -0.11119509 -0.03759989 0.09665714 0.045480117
0001c0 18 07 3e 3d 80 c8 cd ba 7c 86 32 bd 54 ae 4d 3d
       0.046393484 -0.0015700012 -0.043585286 0.05021508
0001d0 34 05 00 bd c4 4d 27 bd 8c ed a6 3d e0 3f df 3c
       -0.031254962 -0.040845647 0.08150777 0.027252138
0001e0 38 f9 41 3d c4 6e 6e 3d dc ce 91 bd 82 46 d4 3d
       0.047356814 0.058211103 -0.071195334 0.10365011
0001f0 b0 80 2d 3d 94 53 ad 3d 60 6c 53 bd 92 ed f3 3d
       0.042359054 0.08463207 -0.051617026 0.11910547
000200 48 3d c9 3d 60 ca 27 bd 20 2c f0 bd 20 bf c7 3d
       0.098261416 -0.040964484 -0.11727166 0.09753251
000210 40 5c 3f bc 84 71 56 3d 34 29 59 3d 80 12 be 3a
       -0.011679709 0.05235435 0.05301781 0.0014501363
000220 40 79 29 bd 58 32 3c bd a0 87 a6 3d ba b6 aa 3d
       -0.0413754 -0.04594645 0.08131337 0.083356336
000230 a0 78 ee bd 0a e3 98 bd 04 77 4f 3d 00 df 93 3d
       -0.11644101 -0.07465179 0.05065061 0.07220268
000240 16 6b e1 3d a2 e8 c5 3d bc af 18 3d 44 3a 19 bd
       0.11006753 0.09663512 0.03727697 -0.037409082
000250 42 2e fb 3d 1c 38 f3 3d fc fd 12 bd 56 16 d1 bd
       0.12264682 0.118759364 -0.03588675 -0.10209338
000260 f0 c4 6a bc 5c 85 5e 3d 7c 26 d3 bd 8c 88 9a bd
       -0.01432918 0.0543264 -0.10310075 -0.075455755
000270 28 ef ae bc 9c 02 69 bd c0 d7 f8 bc 40 5a bc bb
       -0.021354273 -0.056887254 -0.030376315 -0.0057480633
000280 54 28 13 3d a6 c6 8c bd 8c 2c 6a 3d d6 ce a5 bd
       0.03592713 -0.06873827 0.05717139 -0.080960914
000290 38 9d 9b 3d 66 1a df 3d 90 1c 85 bd 78 37 d3 bd
       0.075983465 0.10893707 -0.064995885 -0.10313314
0002a0 24 f7 18 bd 38 a9 ee bc ac 38 3b bd 48 ee 16 3d
       -0.037345067 -0.029133424 -0.045708343 0.036848336
0002b0 d0 48 2c 3c 74 f9 08 bd 46 c8 a0 3d f0 a1 fb 3d
       0.010515407 -0.033441022 0.07850699 0.122867465
0002c0 76 c7 f8 bd 78 e3 68 bd 0c 85 cb bd d0 ac d6 bd
       -0.12147419 -0.056857556 -0.09937486 -0.1048218
0002d0 c0 66 cc 3c 74 86 56 bd 28 a8 f8 3c 98 b0 9a bd
       0.024951339 -0.05237432 0.03035362 -0.07553214
0002e0 20 92 99 bd 68 a5 9d 3d 22 17 cf bd 10 d8 44 bd
       -0.07498574 0.07697564 -0.10111834 -0.048057616
0002f0 50 4a df bd 64 86 9a 3d 94 72 e6 3d 7c 96 20 bd
       -0.10902846 0.07545164 0.11252323 -0.039206013
000300 60 d8 34 3d 0c c8 4a bd 5a 39 a8 bd 58 f3 8c bc
       0.044151664 -0.049507186 -0.08214064 -0.01720588
000310 08 02 68 3d 1c d9 37 bd 84 df be bd 7c 8b 04 3d
       0.056642562 -0.044884786 -0.09319976 0.032359585
000320 02 d9 ac bd f4 cf b6 3d 68 a6 53 3d ce 23 f5 bd
       -0.084398285 0.08926383 0.05167237 -0.1196972
000330 1e 43 8f 3d 0e a1 c6 bd 78 4b 2f bd d0 ee ca bc
       0.069952235 -0.096986875 -0.042796582 -0.024772078
000340 58 75 d6 bd 40 c1 61 bc d2 74 f1 3d 90 19 a0 bc
       -0.104716 -0.013778985 0.1178986 -0.01954344
000350 6e 37 ec 3d 2a 4c 96 3d 76 c1 a7 bd 58 c1 e2 bd
       0.1153401 0.07338746 -0.081911966 -0.11072034
000360 78 eb 9e 3d 54 e9 fe bd 58 16 49 bd 66 86 8d bd
       0.07759756 -0.124468476 -0.049093574 -0.069104
000370 a6 59 9d bd 20 f6 a5 3b fa d6 af 3d 1c 48 d8 bd
       -0.07683115 0.005064741 0.085859254 -0.10560629
000380 aa 38 91 3d 04 65 93 bd 38 25 94 3d 32 50 c7 3d
       0.07090886 -0.071970016 0.072336614 0.09732093
000390 0a 0d 9c 3d 92 39 fc bd cc dd bb 3d 90 3c f2 3d
       0.076196745 -0.12315668 0.09173164 0.11827958
0003a0 b0 8a 20 3d dc c8 23 bd 80 a0 02 bd 6c 50 74 3d
       0.039194763 -0.039986476 -0.031891346 0.05964701
0003b0 ac 1e ac bd 00 ed 56 bc f6 80 d8 bd 60 37 d3 3d
       -0.08404288 -0.013118029 -0.10571472 0.10313296
0003c0 00 d0 c9 38 38 0c cc 3d 30 da 4e bc 10 64 86 bd
       9.62317e-05 0.09963268 -0.012625262 -0.06562054
0003d0 0a d4 f9 3d c0 42 7e bd 16 81 bb 3d 38 bd 69 3d
       0.12198646 -0.062075377 0.091554806 0.05706522
0003e0 7c 49 ef 3d 5e 60 a2 bd ec 75 c0 bd 44 53 ab bd
       0.11683938 -0.07928537 -0.09397492 -0.08365491
0003f0 04 af 0a bd a4 a0 f3 bd ba de e1 bd 14 89 1a 3d
       -0.033858314 -0.11895874 -0.1102881 0.037728384

bias f4 [32]
000000 f0 34 8b 3d d8 8c bf 3c e6 4f d4 bd 9e 3e c3 bd
       0.067972064 0.02338259 -0.10366802 -0.09533428
000010 ac 8f 36 bd 94 4e 89 3d 7e c0 a9 bd f8 92 a6 3d
       -0.04457061 0.06704441 -0.08288668 0.08133501
000020 00 01 3b 3b 84 78 b3 3d 98 31 96 3d 30 91 0e bc
       0.0028534532 0.08763221 0.07333678 -0.008701608
000030 f6 b9 f2 bd 18 6b 3e bd 00 cd 21 3b 2e a8 e5 3d
       -0.118518755 -0.04648885 0.002468884 0.11213718
000040 94 64 f3 3d a0 19 3c bd 04 a6 f8 bd 20 1b 08 bc
       0.11884418 -0.045922875 -0.1214104 -0.008307248
000050 22 55 ba 3d e0 00 9c 3b 24 f0 02 3d 94 7d 09 bd
       0.09098269 0.0047608465 0.031967297 -0.033567026
000060 38 77 e1 3d fc d7 bc 3d 38 3f cd bd 36 09 87 bd
       0.11009067 0.09220883 -0.10021824 -0.06593554
000070 a8 ad d2 bd b0 b4 54 3d 00 2e 2a ba fc ba 30 bd
       -0.102870286 0.05193013 -0.000649184 -0.043147072

weight f4 [16, 32]
000000 a0 5b 6a bd c8 b0 0f be 5e fe db 3d 87 ea 03 3e
       -0.057216287 -0.1403228 0.10741876 0.12882434
000010 58 92 31 3d b4 fd 3d bd 80 30 f5 ba 2c 51 47 bd
       0.043352455 -0.04638453 -0.0018706471 -0.048661396
000020 b0 93 95 3c bf 78 1b be 50 53 91 bc 9f 0f ff bd
       0.0182589 -0.1518278 -0.017739922 -0.12454151
000030 cb 22 10 3e 8a a2 32 be 5c 3f 2e 3d 61 f2 00 be
       0.14075772 -0.17444816 0.042540893 -0.1259246
000040 5c 23 0f 3d f3 74 b7 bd c4 9e 31 bd 0c 3e c6 bd
       0.03494583 -0.08957853 -0.0433643 -0.09679803
000050 96 4d aa 3d 00 98 af b9 fb 97 14 be 26 bd be 3d
       0.083155796 -0.0003349185 -0.14511101 0.09313421
000060 38 b3 47 3d e4 9b 02 bd 00 42 6a 3a 3b b4 02 be
       0.0487549 -0.03188695 0.00089362264 -0.12764065
000070 20 ff cd 3b 46 74 c2 bd 75 02 23 be 03 22 30 3e
       0.006286517 -0.09494834 -0.15918906 0.17200474
000080 dc a6 01 3d 7a 7e ae 3d 3e 17 f9 bd a6 74 05 be
       0.03165327 0.08520217 -0.12162636 -0.13032779
000090 76 92 82 3d 08 d1 54 3d e0 98 4c bc 7e 2f d2 3d
       0.063755915 0.05195716 -0.01248762 0.10262965
0000a0 21 a3 e4 bd 66 51 1e be a0 7a 65 bc 80 1c 57 3b
       -0.11163927 -0.15460739 -0.014006287 0.0032823384
0000b0 9c 03 be bd 43 09 1c be b0 c2 be bc 80 7a b6 bd
       -0.09278032 -0.15237908 -0.023286194 -0.08910084
0000c0 31 73 91 bd 69 af 30 be 90 f2 b2 3c ee 33 22 be
       -0.07102049 -0.17254414 0.021844178 -0.15840122
0000d0 70 6c 97 3c 0c 49 20 be 0c 09 37 3d 4a 6d c3 3d
       0.018484324 -0.15652865 0.044686362 0.095423296
0000e0 d6 f8 d4 3d c1 4e 22 3e 8e a4 a8 3d b4 55 1d bd
       0.10399024 0.15850355 0.08234511 -0.03841181
0000f0 88 d6 ad 3c 7a ac 8e 3d 8d 22 09 3e 88 6a bf bc
       0.02122046 0.06966491 0.13392086 -0.023366228
000100 4e 61 bd 3d 5f 61 bb bd 23 da 29 3e af bc 20 3e
       0.09247075 -0.091494314 0.16587119 0.15696977
000110 d0 f0 23 3d 88 ea ee bc 25 20 05 be 40 0c 18 be
       0.04002458 -0.029164568 -0.13000543 -0.14848423
000120 53 60 bd bd 28 65 b5 3c 40 69 10 3b fd 9f 20 3e
       -0.09246888 0.022142962 0.002203539 0.1568603
000130 7b 81 86 bd de e8 af 3d dc 49 50 bd 95 7b 2f 3e
       -0.06567665 0.08589338 -0.050851688 0.17136987
000140 b9 de 0f 3e c0 e4 56 bc 10 cd 07 be be 38 31 be
       0.14049806 -0.013116062 -0.13261819 -0.17306802
000150 1c e5 8a 3d af bd 99 bd 95 9f 1a be e7 05 0e 3e
       0.067819804 -0.075068824 -0.15099938 0.13869439
000160 0c c7 96 bd 79 df 1e 3e 63 b9 30 3e a4 e2 bb bd
       -0.07362184 0.15514936 0.1725822 -0.09174088
000170 e0 a2 81 3b b0 e8 b6 bd 1e e9 bc 3d 2e c3 bc bd
       0.003956184 -0.089311 0.09224151 -0.09216915
000180 66 5b cf 3d 28 75 30 be 7a 23 c6 3d ca d2 09 be
       0.10124855 -0.17232192 0.09674735 -0.13459316
000190 f8 c7 69 3d 86 e6 c1 3d 06 53 92 bd d8 e0 67 bd
       0.05707547 0.09467797 -0.07144742 -0.056610912
0001a0 20 d5 ed bc ea 9a f8 3d fb 0a 30 be 50 f1 57 bc
       -0.02903229 0.121389225 -0.17191689 -0.013180092
0001b0 16 b7 d5 3d 5a 3c 9a 3d b0 a1 06 be f4 93 4b bd
       0.104353115 0.075310424 -0.13147616 -0.049701646
0001c0 46 53 95 bd 21 e1 26 3e ca c1 d9 bd f8 4d db 3c
       -0.07291274 0.16296817 -0.106326655 0.026770577
0001d0 74 ba 81 bd 60 07 42 bd 49 90 ce bd 7c f2 16 be
       -0.06334391 -0.047370315 -0.10086114 -0.14740938
0001e0 a0 7d 40 3c c0 b4 24 3c 18 6a 67 bd e8 93 93 bd
       0.011748701 0.01005286 -0.056497663 -0.07205945
0001f0 ef f5 9d bd 42 ed dd 3d 3c 84 57 3d a6 18 9c bd
       -0.07712924 0.10836269 0.052616343 -0.07621889
000200 ce 80 04 be 2b 6a d8 bd 1a be ef 3d 70 e2 df 3c
       -0.1293976 -0.10567125 0.11706181 0.027329654
000210 ea 8b fd 3d 50 89 a3 bc 74 d2 40 bd a3 0d 19 3e
       0.12380202 -0.019962937 -0.047075704 0.14946608
000220 d8 ab 04 3d 24 44 3f 3d 50 07 76 3c f8 e2 bc 3c
       0.032390445 0.046695843 0.015016392 0.023057446
000230 5e e5 bf 3d 5a e9 f5 3d c3 05 2c 3e 1e 8a 9d 3d
       0.0936992 0.12007399 0.16799073 0.076923594
000240 63 af 1b 3e 9f 3e 31 be 20 40 04 3d 6a ae 5b bd
       0.15203623 -0.17309044 0.032287717 -0.05363313
000250 39 2a 11 be a0 29 e1 bc 59 1e 2e be 2b 24 11 3e
       -0.14176263 -0.027485669 -0.17003764 0.14173953
000260 20 f0 13 3c 1e e4 15 be 78 29 e0 bc 0c 87 7e 3d
       0.009029418 -0.14637801 -0.027363524 0.06214051
000270 45 a0 8d bd e0 07 4d bd 3c 69 52 3d a0 f1 93 bc
       -0.069153346 -0.05005634 0.05136989 -0.018059552
000280 da 58 f8 3d 9a 52 c4 3d 65 47 07 3e 80 d2 f1 3a
       0.12126322 0.095860675 0.13210829 0.0018449575
000290 f8 4d 72 3d 78 94 87 3d df c3 17 3e c7 3c 03 3e
       0.059156388 0.06620115 0.14820813 0.12816153
0002a0 79 d6 0e 3e 48 09 7d 3d 28 78 d7 bc 30 51 a1 bc
       0.13949002 0.06177643 -0.026302412 -0.019692034
0002b0 a8 8d 59 3d 61 89 14 3e 48 4c 5f bd e1 43 2b be
       0.05311361 0.14505531 -0.054516107 -0.16725112
0002c0 0a 20 c0 bd 80 30 3d 3b 6c 06 37 3d 81 50 84 bd
       -0.09381111 0.002886802 0.04468386 -0.064606674
0002d0 00 9e bc bd 57 ce 33 be 25 7c 28 3e e6 de ee 3d
       -0.092098236 -0.17559181 0.16453607 0.11663608
0002e0 6c bd 0d be 4a 99 d5 3d a8 54 39 3d da 72 d1 3d
       -0.1384179 0.10429628 0.04524675 0.10226984
0002f0 36 96 d1 3d cf fb 02 3e ae 37 a4 3d de fd c6 3d
       0.102337286 0.1279137 0.080184326 0.0971639
000300 ec f6 33 3d d8 12 94 bc ab 37 25 3e de 17 cd 3d
       0.043936655 -0.018075392 0.16134517 0.10014318
000310 12 bf f5 3d b4 0b 79 3d 99 a5 11 be c1 32 0e 3e
       0.119993344 0.060802177 -0.14223327 0.13886549
000320 62 cf a2 bd a8 7f 79 3d 0b db 20 3e 63 2a 33 3e
       -0.079497114 0.060912758 0.15708558 0.17496638
000330 38 10 e6 3c 5b 35 06 3e 68 c9 93 3d fb d5 0a 3e
       0.028083906 0.13106291 0.072161496 0.1355819
000340 66 03 ba bd 60 9b 46 bc 80 5b 11 bd ae c8 bf 3d
       -0.090826795 -0.012122005 -0.03548765 0.093644485
000350 5e 77 bf 3d 97 3f 1e be 00 13 02 bd 30 53 0a 3c
       0.09348939 -0.15453945 -0.0317564 0.008442685
000360 d6 a6 c0 3d 10 7e dd 3c f4 55 7d 3d 54 c6 7a 3d
       0.094068214 0.02703765 0.06184955 0.061224297
000370 10 0d 49 bd d0 f5 38 3d 0a 14 09 be 2a c5 cf 3d
       -0.049084723 0.0451563 -0.1338655 0.10145028
000380 94 ee 2d be 69 0a c5 bd c2 28 dd 3d 00 8f 5d 3c
       -0.16985542 -0.09621126 0.107987896 0.013522863
000390 0f f9 fa bd 7f 87 0c 3e ae 84 db 3d aa d3 c0 bd
       -0.122545354 0.13723563 0.10718666 -0.09415372
0003a0 60 af 03 be 1c 18 17 be 34 92 51 3d 9c 71 3f bd
       -0.12859869 -0.14755291 0.05116482 -0.046739206
0003b0 06 54 0f be 64 02 0f be 7b 04 f5 bd 98 a7 96 3c
       -0.13996896 -0.13965756 -0.11963745 0.018390462
0003c0 fa 38 61 bd f2 bb f3 3d 62 f5 b6 bd fc ba 02 bd
       -0.054985978 0.11901082 -0.08933522 -0.031916603
0003d0 ba 0b d7 3d 7d f6 bc bd dc 56 7c 3d 50 81 52 3d
       0.105002835 -0.092267014 0.061606273 0.051392853
0003e0 ee d0 b6 3d 7f b9 02 be 22 2a ff 3d 0e 67 b8 bd
       0.08926569 -0.12766074 0.12459208 -0.09004031
0003f0 fa 7c ae 3d 90 99 d6 bc 30 96 38 bc 76 1e bb 3d
       0.08519931 -0.026196271 -0.011266276 0.09136669

bias f4 [16]
000000 10 71 e3 bd 12 9a b1 bd d4 b5 7a 3d cc cc 0d be
       -0.11105549 -0.08671965 0.06120856 -0.13847655
000010 7e 4c 9a 3d c8 d4 21 bd 49 4b 2b 3e dc 1c 20 3d
       0.07534121 -0.039509565 0.16727938 0.039090022
000020 d8 da 8a 3d b8 95 92 bc 18 b6 d0 3c ea 71 09 be
       0.067800224 -0.017893657 0.025477454 -0.13422361
000030 d6 51 e4 3d f7 8b 0d 3e 99 aa 0b 3e 24 24 23 be
       0.111484215 0.13822924 0.13639297 -0.15931755

weight f4 [3, 16]
000000 86 4a 3e be 32 46 02 3e 18 59 7a 3e 10 61 cc bc
       -0.18583116 0.1272209 0.24448049 -0.024948627
000010 cc 9e d1 bd ce 1c 26 be 20 85 b0 3c a0 ac 4d 3e
       -0.10235366 -0.16221926 0.021547854 0.20085382
000020 9a 1b 3d 3e f0 1c 7d be f8 1d ba bd d8 57 89 bd
       0.1846756 -0.2471807 -0.09087747 -0.06706208
000030 40 b4 ad 3d 88 53 57 bd 1e da 08 be 0e 06 22 3e
       0.084816456 -0.052569896 -0.13364455 0.15822622
000040 c8 d3 e3 bd 82 fa 5e 3e 9c b1 a7 3d 90 54 58 3e
       -0.111243784 0.21775249 0.08188173 0.21126008
000050 cc f7 4c 3e 60 31 c4 3d 58 ad ee bd 20 35 44 be
       0.20016402 0.0957973 -0.116541564 -0.1916089
000060 72 14 6b 3e e8 b0 31 be 40 f1 11 bc fa 99 29 be
       0.22957018 -0.1735264 -0.008907616 -0.16562644
000070 84 5e 35 be 98 85 3f be 48 f9 91 3d 44 19 c7 bd
       -0.17711836 -0.18703306 0.07127625 -0.09721616
000080 e0 8d fe bd f8 4f 8a 3d be 1d 53 3e 60 0e df 3c
       -0.12429404 0.06753534 0.20616814 0.027228534
000090 84 d8 d2 3d 0c 84 d3 3d 5a 2b 77 3e d2 c5 0e be
       0.10295203 0.1032792 0.24137631 -0.1394265
0000a0 60 26 1e bd 48 9c e5 3d 8a f1 05 be 14 ce fd bd
       -0.038610816 0.11211449 -0.13080421 -0.12392822
0000b0 2e e2 0f be aa 69 5e be 78 81 d8 bd 94 f6 85 bd
       -0.14051124 -0.21719995 -0.10571569 -0.06541172

bias f4 [3]
000000 c8 5a f4 bd 50 e8 18 be 70 00 51 be
       -0.11931378 -0.1493237 -0.20410323
